…
tial() model.add(layers.Conv2D(32, (3, 3), activation='relu', input_shape=(28, 28, 1))) model.add(layers.MaxPooling2D((2, 2))) model.add(layers.Conv2D(64, (3, 3), activation='relu')) model.add(layers.MaxPooling2D((2, 2))) model.add(layers.Conv2D(64, (3, 3), activation='relu'))卷积网络接收(image_height,image_width,image_channels)形状的张量作为输入(不包括batch size)。MNIST中，将图片转换成(28,28，1)形状，然后在第一层传递input_shape参数。显示网络架构model.summary() ________________________________________________________________ Layer (type) Output Shape Param # ================================================================ conv2d_1 (Conv2D) (None, 26, 26, 32) 320 ________________________________________________________________ maxpooling2d_1 (MaxPooling2D) (None, 13, 13, 32) 0 ________________________________________________________________ conv2d_2 (Conv2D) (None, 11, 11, 64) 18496 ________________________________________________________________ maxpooling2d_2 (MaxPooling2D) (None, 5, 5, 64) 0 ________________________________________________________________ conv2d_3 (Conv2D) (None, 3, 3, 64) 36928 ================================================================ Total params: 55,744 Trainable params: 55,744 Non-trainable params: 0可以看到每个Conv2D和MaxPooling2D网络层输出都是3D张量，形状为(height,width,channels).随着网络层的加深，长度和宽度逐渐减小；通道数通过Conv2D层的参数控制。下一步连接Dense层，但当前输出为3D张量，需要将3D张量平铺成1D，然后添加Dense层。model.add(layers.Flatten()) model.add(layers.Dense(64,activation='relu')) model.add(layers.Dense(10,activation='softmax'))因为是10分类，最后一层为10个神经元，激活函数为softmax。最后的网络架构>>> model.summary() Layer (type) Output Shape Param # ================================================================ conv2d_1 (Conv2D) (None, 26, 26, 32) 320 ________________________________________________________________ maxpooling2d_1 (MaxPooling2D) (None, 13, 13, 32) 0 ________________________________________________________________ conv2d_2 (Conv2D) (None, 11, 11, 64) 18496 ________________________________________________________________ maxpooling2d_2 (MaxPooling2D) (None, 5, 5, 64) 0 ________________________________________________________________ conv2d_3 (Conv2D) (None, 3, 3, 64) 36928 ________________________________________________________________ flatten_1 (Flatten) (None, 576) 0 ________________________________________________________________ dense_1 (Dense) (None, 64) 36928 ________________________________________________________________ dense_2 (Dense) (None, 10) 650 ================================================================ Total params: 93,322 Trainable params: 93,322 Non-trainable params: 0(3,3,64)输出平摊成(576,)向量。网络训练from keras.datasets import mnist from keras.utils import to_categorical (train_images, train_labels), (test_images, test_labels) = mnist.load_data() train_images = train_images.reshape((60000, 28, 28, 1)) train_images = train_images.astype
…
0, 3))) model.add(layers.MaxPooling2D((2, 2))) model.add(layers.Conv2D(64, (3, 3), activation='relu')) model.add(layers.MaxPooling2D((2, 2))) model.add(layers.Conv2D(128, (3, 3), activation='relu')) model.add(layers.MaxPooling2D((2, 2))) model.add(layers.Conv2D(128, (3, 3), activation='relu')) model.add(layers.MaxPooling2D((2, 2))) model.add(layers.Flatten()) model.add(layers.Dense(512, activation='relu')) model.add(layers.Dense(1, activation='sigmoid'))模型架构：>>> model.summary() Layer (type) Output Shape Param # ================================================================ conv2d_1 (Conv2D) (None, 148, 148, 32) 896 ________________________________________________________________ maxpooling2d_1 (MaxPooling2D) (None, 74, 74, 32) 0 ________________________________________________________________ conv2d_2 (Conv2D) (None, 72, 72, 64) 18496 ________________________________________________________________ maxpooling2d_2 (MaxPooling2D) (None, 36, 36, 64) 0 ________________________________________________________________ conv2d_3 (Conv2D) (None, 34, 34, 128) 73856 ________________________________________________________________ maxpooling2d_3 (MaxPooling2D) (None, 17, 17, 128) 0 ________________________________________________________________ conv2d_4 (Conv2D) (None, 15, 15, 128) 147584 ________________________________________________________________ maxpooling2d_4 (MaxPooling2D) (None, 7, 7, 128) 0 ________________________________________________________________ flatten_1 (Flatten) (None, 6272) 0 ________________________________________________________________ dense_1 (Dense) (None, 512) 3211776 ________________________________________________________________ dense_2 (Dense) (None, 1) 513 ================================================================ Total params: 3,453,121 Trainable params: 3,453,121 Non-trainable params: 0编译阶段，使用RMSProp优化算法，binary crossentropy为损失函数。from keras import optimizers model.compile(loss='binary_crossentropy',optimizer=optimizers.RMSprop(lr=1e-4),metrics=['acc'])数据预处理数据在送到网络模型之前应该转换成浮点类型的张量。目前数据集中数据格式为JPEG，所以处理步骤大致为：读取图片文件；将JPEG格式转换为RGB像素值；转换成浮点类型张量；将像
…
卷积网络来实现这一点，从猫和狗图像中提取有趣的特征，然后在这些特征之上训练狗与猫的分类器。Keras中可以直接获取VGG16模型，包含在keras.applications模块中。其中还包括其他模型：XceptionInception V3ResNet50VGG16VGG19MobileNet实例化VGG16模型：from keras.application import vgg16 conv_base = VGG16(weights='imagenet',include_top=False,input_shape=(150, 150, 3))构造器的3个参数：weights：读取权重保存点文件，初始化模型；include_top：是否包含网络的全连接层。模型，全连接层分类类别在ImageNet上的1000类。因为要使用自己创建的全连接分类器，可以不使用原来的全连接层；input_shape：送到模型中图片张量的形状；参数是可选的：如果不传递参数，网络可以处理任意形状的输入。VGG16网络模型架构：>>> conv_base.summary() Layer (type) Output Shape Param # ================================================================ input_1 (InputLayer) (None, 150, 150, 3) 0 ________________________________________________________________ block1_conv1 (Convolution2D) (None, 150, 150, 64) 1792 ________________________________________________________________ block1_conv2 (Convolution2D) (None, 150, 150, 64) 36928 ________________________________________________________________ block1_pool (MaxPooling2D) (None, 75, 75, 64) 0 ________________________________________________________________ block2_conv1 (Convolution2D) (None, 75, 75, 128) 73856 ________________________________________________________________ block2_conv2 (Convolution2D) (None, 75, 75, 128) 147584 ________________________________________________________________ block2_pool (MaxPooling2D) (None, 37, 37, 128) 0 ________________________________________________________________ block3_conv1 (Convolution2D) (None, 37, 37, 256) 295168 ________________________________________________________________ block3_conv2 (Convolution2D) (None, 37, 37, 256) 590080 ________________________________________________________________ block3_conv3 (Convolution2D) (None, 37, 37, 256) 590080 ________________________________________________________________ block3_pool (MaxPooling2D) (None, 18, 18, 256) 0 ________________________________________________________________ block4_conv1 (Convolution2D) (None, 18, 18, 512) 1180160 ________________________________________________________________ block4_conv2 (Convolution2D) (None, 18, 18, 512) 2359808 ________________________________________________________________ block4_conv3 (Convolution2D) (None, 18, 18, 512) 2359808 ________________________________________________________________ block4_pool (MaxPooling2D) (None, 9, 9, 512) 0 ________________________________________________________________ block5_conv1 (Convolution2D) (None, 9, 9, 512) 2359808 ________________________________________________________________ block5_conv2 (Convolution2D) (None, 9, 9, 512) 2359808 ________________________________________________________________ block5_conv3 (Convolution2D) (None, 9, 9, 512) 2359808 ________________________________________________________________ block5_pool (MaxPooling2D) (None, 4, 4, 512) 0 ================================================================ Total params: 14,714,688 Trainable params: 14,714,688 Non-trainable params: 0最后一层的特征图形状为(4,4,512).之后连接到全连接分类器上。有两种处理方法：训练卷积网络模型部分，将输出结果保存在磁盘上，之后读取磁盘上的数据送到全连接分类器中。优点在于运行高效、快速，因为卷积网络部分针对每张输入图片只运行一次，而卷积部分是最耗时、耗费运算能力资源的；但同时不能使用数据增强；将全连接分类器和卷积部分整合到一起，在输入数据上端到端的运行；可以使用数据增强，因为每次输入模型的图像都会通过模型经过卷积部分。不使用数据增强的特征提取使用ImageDataGenerator将磁盘文件和标签读取
…
